…
  scaler = torch.cuda.amp.GradScaler(enabled=device.type == "cuda" and config.train.dtype == "float16")
[startup] loaded checkpoint=outputs/dna_nugget_modified_r1_continuous_flatten_d64/best.pt init_from=pretrained optimizer_restored=False scheduler_restored=False
[setup] model architecture:
NuggetAutoencoder(
  (scorer): NuggetScorer(
    (base_transformer): BartEncoder(
      (embed_tokens): BartScaledWordEmbedding(15627, 768, padding_idx=15625)
      (embed_positions): BartLearnedPositionalEmbedding(514, 768)
      (layers): ModuleList(
        (0-2): 3 x BartEncoderLayer(
          (self_attn): BartSdpaAttention(
            (k_proj): Linear(in_features=768, out_features=768, bias=True)
            (v_proj): Linear(in_features=768, out_features=768, bias=True)
            (q_proj): Linear(in_features=768, out_features=768, bias=True)
            (out_proj): Linear(in_features=768, out_features=768, bias=True)
          )
          (self_attn_layer_norm): LayerNorm((768,), eps=1e-05, elementwise_affine=True)
          (activation_fn): GELUActivation()
          (fc1): Linear(in_features=768, out_features=3072, bias=True)
          (fc2): Linear(in_features=3072, out_features=768, bias=True)
          (final_layer_norm): LayerNorm((768,), eps=1e-05, elementwise_affine=True)
        )
      )
      (layernorm_embedding): LayerNorm((768,), eps=1e-05, elementwise_affine=True)
    )
    (non_linear): Sequential(
      (0): Linear(in_features=768, out_features=768, bias=True)
      (1): ReLU(inplace=True)
      (2): Linear(in_features=768, out_features=1, bias=True)
    )
  )
  (encoder): BartEncoder(
    (embed_tokens): BartScaledWordEmbedding(15627, 768, padding_idx=15625)
    (embed_positions): BartLearnedPositionalEmbedding(514, 768)
    (layers): ModuleList(
      (0-5): 6 x BartEncoderLayer(
        (self_attn): BartSdpaAttention(
          (k_proj): Linear(in_features=768, out_features=768, bias=True)
          (v_proj): Linear(in_features=768, out_features=768, bias=True)
          (q_proj): Linear(in_features=768, out_features=768, bias=True)
          (out_proj): Linear(in_features=768, out_features=768, bias=True)
        )
        (self_attn_layer_norm): LayerNorm((768,), eps=1e-05, elementwise_affine=True)
        (activation_fn): GELUActivation()
        (fc1): Linear(in_features=768, out_features=3072, bias=True)
        (fc2): Linear(in_features=3072, out_features=768, bias=True)
        (final_layer_norm): LayerNorm((768,), eps=1e-05, elementwise_affine=True)
      )
    )
    (layernorm_embedding): LayerNorm((768,), eps=1e-05, elementwise_affine=True)
  )
  (decoder): BartForConditionalGeneration(
    (model): BartModel(
      (shared): Embedding(15627, 768, padding_idx=15625)
      (encoder): None
      (decoder): BartDecoder(
        (embed_tokens): BartScaledWordEmbedding(15627, 768, padding_idx=15625)
        (embed_positions): BartLearnedPositionalEmbedding(514, 768)
        (layers): ModuleList(
          (0-5): 6 x BartDecoderLayer(
            (self_attn): BartSdpaAttention(
              (k_proj): Linear(in_features=768, out_features=768, bias=True)
              (v_proj): Linear(in_features=768, out_features=768, bias=True)
              (q_proj): Linear(in_features=768, out_features=768, bias=True)
              (out_proj): Linear(in_features=768, out_features=768, bias=True)
            )
            (activation_fn): GELUActivation()
            (self_attn_layer_norm): LayerNorm((768,), eps=1e-05, elementwise_affine=True)
            (encoder_attn): NuggetBartAttention(
              (k_proj): Linear(in_features=768, out_features=768, bias=True)
              (v_proj): Linear(in_features=768, out_features=768, bias=True)
              (q_proj): Linear(in_features=768, out_features=768, bias=True)
              (out_proj): Linear(in_features=768, out_features=768, bias=True)
            )
            (encoder_attn_layer_norm): LayerNorm((768,), eps=1e-05, elementwise_affine=True)
            (fc1): Linear(in_features=768, out_features=3072, bias=True)
            (fc2): Linear(in_features=3072, out_features=768, bias=True)
            (final_layer_norm): LayerNorm((768,), eps=1e-05, elementwise_affine=True)
          )
        )
        (layernorm_embedding): LayerNorm((768,), eps=1e-05, elementwise_affine=True)
      )
    )
    (lm_head): Linear(in_features=768, out_features=15627, bias=False)
  )
  (encoder_to_code): Linear(in_features=768, out_features=64, bias=True)
  (code_to_decoder): Linear(in_features=64, out_features=768, bias=True)
  (code_layer_norm): LayerNorm((64,), eps=1e-05, elementwise_affine=True)
  (decoder_input_layer_norm): LayerNorm((768,), eps=1e-05, elementwise_affine=True)
  (flatten_bottleneck_layer_norm): LayerNorm((512,), eps=1e-05, elementwise_affine=True)
  (flatten_to_bottleneck): Linear(in_features=32768, out_features=512, bias=True)
  (bottleneck_to_flatten): Linear(in_features=512, out_features=32768, bias=True)
)
[setup] starting training epochs=1 steps_per_epoch=37500
[train] epoch=1 step=25 loss/token=6.0089 decoder_loss=6.0089 bits/base=1.4448 decoder_bpb=1.4448 latent_bpb=2.6771 total_bpb=4.1219 grad_norm=19.5723 tokens/s=42826.2 lr=2.6e-06
[train] epoch=1 step=50 loss/token=6.3323 decoder_loss=6.3323 bits/base=1.5226 decoder_bpb=1.5226 latent_bpb=2.6771 total_bpb=4.1997 grad_norm=26.5780 tokens/s=49691.3 lr=5.1e-06
…
